hw4/110062643_hw4/saved-models/gcn.pt (torch, 93663 bytes, 4 tensors)

gc1.weight f4 [1433, 16]
000000 c3 bd 6f 3d 36 18 fb 3c d1 a3 ce bd c5 88 a4 ba
       0.05853058 0.030651193 -0.10089839 -0.0012552968
000010 2c e7 9d 3c d6 b5 8b 3e 9a 2c ef 3d 9a 5f b2 bc
       0.01927527 0.27287167 0.11678429 -0.021774102
000020 c8 9d e8 bd 00 c5 6b 3c eb 1b af bd 02 98 e5 3d
       -0.113582194 0.01439023 -0.08550247 0.11210634
000030 56 c5 c7 bd c4 49 5d 3d d1 e4 ae 3d 7b 9a d7 bd
       -0.09754436 0.054025427 0.08539737 -0.10527512
000040 2b c3 de 3d f0 61 78 3e 47 40 eb 3c f5 ca 63 3e
       0.10877069 0.2425611 0.028717173 0.2224539
000050 fb 9c c2 3e f1 2a a5 3d d7 8f de bd b9 59 ca 3c
       0.38010392 0.08064831 -0.10867279 0.024700986
000060 42 c5 53 be c6 de 84 3e 0d 5d e6 bc 48 17 ab 3e
       -0.20680717 0.25951213 -0.028120542 0.334162
000070 37 c3 af 3e 4b c5 3c be dc 7c a5 3c dc dd 4f be
       0.34328625 -0.18434636 0.02020114 -0.20299476
000080 82 02 31 3e 78 c1 65 3d b6 2a 1d be 6e 33 64 be
       0.17286113 0.05609271 -0.15348324 -0.22285244
000090 93 84 0c 3d 2c 66 90 bd 1c de 8d 3d 3b 3c 8a be
       0.03430612 -0.07050738 0.069271296 -0.26999077
0000a0 85 d7 9f 3e b1 8f 38 be f9 77 07 be ac 58 46 b9
       0.31219116 -0.18023564 -0.1322936 -0.00018915784
0000b0 23 f3 01 3f 9c 72 89 3d 1e df 8d 3c 66 b9 37 bd
       0.5076162 0.06711313 0.017318305 -0.044854544
0000c0 6b a9 6d 3d a6 14 42 3e bf ad a8 3b 5f 18 85 b9
       0.058022898 0.18953189 0.0051476653 -0.00025385895
0000d0 46 a1 74 3c 78 70 46 3e 1b 05 ce bd 67 3e ef 3c
       0.014931029 0.19378841 -0.100595675 0.02920456
0000e0 b1 1e 69 3d c9 35 f0 3d 0f 34 e5 3d c3 30 8f 3d
       0.056914035 0.11729009 0.1119157 0.069917224
0000f0 f3 f6 4c 3d 5f 3e 38 3b 88 3a 2e 3e 10 ac b6 3d
       0.050040197 0.0028113348 0.17014515 0.08919537
000100 07 58 55 bd 2d a0 12 3c 49 c4 0a be 77 a3 8a 3e
       -0.052085903 0.008949322 -0.1355144 0.2707784
000110 65 b2 b5 3d 35 c8 2c be 69 94 7d be 91 f2 76 3e
       0.08871917 -0.16873248 -0.24763645 0.24115969
000120 92 e1 9b 3e f9 7d 6f be 7c 2b 35 be fa 5c 51 3e
       0.30445534 -0.23387899 -0.17692369 0.20445624
000130 6e ca ef 3e 7a f8 8e bd 66 6e 43 be 09 95 87 bd
       0.4683413 -0.06980987 -0.19085082 -0.06620223
000140 76 fa 74 3d 8f 85 16 bd 7e f7 08 bd 1e d2 80 3b
       0.05980917 -0.036748465 -0.033439152 0.003931298
000150 4b 54 ed 3d 1c dc d1 3c 29 ac b1 bc c2 3d 39 bc
       0.11588343 0.025617652 -0.021688538 -0.011306228
000160 78 ad 7e 3c 9d a6 b3 3d 5e 76 83 3d 92 fc fc 3c
       0.015544288 0.08772013 0.06419061 0.030882154
000170 14 6f dd 3c 5a ff 8b bc c9 28 01 3c 01 3e 09 be
       0.027030505 -0.017089535 0.007883259 -0.13402559
000180 51 5b 91 3e 7f 76 b8 be 53 a8 4f be 7f 97 94 3e
       0.2838998 -0.36027905 -0.20279054 0.29021832
000190 8e fc ae 3e 1c 53 d1 3e 07 f1 bb 3e 52 88 93 3e
       0.3417706 0.4088372 0.36707327 0.28814942
0001a0 96 c3 f5 3d 8d 0d 90 3e 7c 68 21 be 1e bc 4d be
       0.12000196 0.28135338 -0.15762514 -0.20091292
0001b0 8b 70 27 be 64 b7 ba 3e 6d 65 f3 be 67 5e 5f 3e
       -0.16351525 0.3646804 -0.4753832 0.21813355
0001c0 97 d5 0e be df 6e 0c 3e a4 77 c0 bd 08 34 94 3d
       -0.13948666 0.13714169 -0.0939782 0.07236487
0001d0 03 be 82 bd 06 ec 1d 3d 6c 52 7e bc d0 eb 3e bd
       -0.06383898 0.038555168 -0.015522581 -0.046611607
0001e0 4c 44 a8 3d a3 b9 a5 bd 1f 92 48 bd 7c 53 15 3e
       0.082161516 -0.08092048 -0.048967477 0.14582628
0001f0 e8 a7 de bb a5 a6 e6 bd f6 10 8b bd a7 5b 6e bd
       -0.0067949183 -0.11262254 -0.067903444 -0.058192875
000200 3d b3 b9 3e 17 6d 85 bd d8 ff a1 3d 7e 09 1b be
       0.3626956 -0.06514948 0.079101264 -0.1514034
000210 77 e2 98 3e 71 2c 1c 3d d9 df a2 bd c0 91 06 be
       0.2986028 0.03812832 -0.07952852 -0.13141537
000220 21 5c 1b be 55 a4 bb 3e 4b 34 60 3e 65 56 01 be
       -0.15171863 0.36648813 0.21894948 -0.12630613
000230 e7 99 d6 3e 37 7f 41 3e 36 d6 91 3e 49 d4 0d be
       0.41914293 0.18896185 0.28483742 -0.13850512
000240 8e a4 d1 3d e9 69 25 3e 36 0c 91 3d 04 33 8f bc
       0.102364644 0.16153683 0.07082407 -0.01748038
000250 52 98 50 3e f1 90 b2 3e ce 8e a7 3d e7 8c 91 3d
       0.20370606 0.34876207 0.08181535 0.07106953
000260 d1 26 1c 3d cd 5c c8 3d 31 14 91 3d f7 59 61 bd
       0.038122956 0.09783325 0.07083929 -0.055017438
000270 b1 22 61 bd c2 b0 b3 3d c4 a5 a0 bc fb c6 5e 3e
       -0.054964725 0.08773948 -0.019610293 0.21755593
000280 30 da 51 3e fd eb 29 3e 3f 7e ac bc ab 80 19 be
       0.20493388 0.16593929 -0.021056293 -0.14990489
000290 b1 85 8b 3c 0e ba bc 3e 91 e2 b9 3c e1 78 31 be
       0.017031522 0.36860698 0.022691043 -0.17331268
0002a0 e7 40 f4 bd a3 06 0b 3e 4d 27 22 bd 11 7c 34 3e
       -0.11926442 0.1357675 -0.03958826 0.17625453
0002b0 24 48 22 be 9e 02 ba bd 00 7c 55 3e 2a 88 56 be
       -0.15847832 -0.090825304 0.20848083 -0.2095038
0002c0 34 02 0c 3e 43 40 8f bd aa 71 7d 3d c4 84 bf bd
       0.13672715 -0.06994679 0.061875977 -0.09351495
0002d0 5b 85 09 be 7e 60 de 3c 99 4a 1f 3e 46 05 fc bd
       -0.13429777 0.02714562 0.155558 -0.12305693
0002e0 6a 39 67 3d 15 df 03 3c a9 ef c4 bd b2 6e de 3c
       0.05645124 0.008048792 -0.09616024 0.027152393
0002f0 64 e6 91 3c 1a 01 16 3e e2 36 d8 3d 19 89 ae 3d
       0.017810054 0.14648858 0.10557343 0.08522243
000300 e9 d8 88 3c c7 ad 45 3d 5b 8e 30 be a5 69 db 3e
       0.016704993 0.04826143 -0.17241804 0.42854038
000310 00 62 12 3e a3 dd 4b be 18 e2 1a be 20 cf ec 3d
       0.14295197 -0.19908766 -0.1512531 0.115629435
000320 e2 3a 0d 3e 96 7e ab bd 28 60 a8 be 77 b4 99 3e
       0.13791993 -0.08373754 -0.3288586 0.30020496
000330 f3 1c 25 3e 81 c5 57 bd e0 b6 2b be f0 4e 3c be
       0.16124325 -0.05267859 -0.1676898 -0.18389487
000340 0e b8 44 3e 3c b2 07 3d d5 a7 0c 3e 21 89 c2 bd
       0.19210836 0.033128962 0.13735898 -0.094988115
000350 a1 a5 27 bc 5c ef c8 bb 09 f3 79 bd 9d 0f 0f be
       -0.01023236 -0.0061320495 -0.061022792 -0.139708
000360 50 cf f8 bd ec c9 a6 3d 93 00 66 3e 57 f2 c4 3b
       -0.12148917 0.08143982 0.22461157 0.0060103345
000370 41 c7 8f 3d 40 6f bf bd 2b 47 b1 3d f2 46 d5 bd
       0.070204265 -0.09347391 0.08656152 -0.10413922
000380 05 72 23 3e 20 c1 55 3d c6 96 33 bc 9c 8b 18 be
       0.15961464 0.05218613 -0.01096124 -0.14897007
000390 e7 2e 01 be aa 08 93 3d 13 56 24 3e 2a 44 35 be
       -0.12615548 0.07179387 0.1604846 -0.17701784
0003a0 0c 6c d7 bd d6 94 e4 3d a4 dd af 3d 4b 24 f6 bd
       -0.10518655 0.11161201 0.085871965 -0.12018641
0003b0 eb 09 87 3c 5e 3e 2c bd b4 e4 29 3e d6 7e 51 bc
       0.016484221 -0.042051665 0.1659115 -0.012786588
0003c0 d7 59 88 be 63 ba 8d 3e a7 36 18 3d 2f 18 cd 3d
       -0.26631042 0.27681264 0.037161496 0.10014378
0003d0 1b 67 58 3e 5b 60 d8 bd d5 0e 13 bd 1d 73 a4 3c
       0.21133082 -0.10565253 -0.035902817 0.020074422
0003e0 2a b3 e7 3d 6e 9a fc 3c 4c 2e 40 3e c6 78 42 3c
       0.1131347 0.030835357 0.18767661 0.011869615
0003f0 fa ae b5 3d ac 69 c6 3b 2d ce e4 bd e1 23 dd 3d
       0.08871265 0.0060550775 -0.111721374 0.10797859

gc1.bias f4 [16]
000000 a6 5c b8 3e 11 70 c6 3e 3e 06 49 3e ec 6d 82 3d
       0.36008185 0.38757375 0.19631287 0.06368622
000010 84 ee a2 3d cd b4 0f 3e 3e 1a 3d 3e b7 09 4e 3e
       0.079556495 0.14033814 0.18467042 0.20120893
000020 2f f2 e2 3c e4 93 5e 3e 9c a0 f9 3d af a0 e9 3d
       0.027703373 0.21736103 0.12188837 0.11407601
000030 dd 80 9f 3e 18 cf 36 3e 95 fd 42 3e fd 5b 94 3e
       0.31153002 0.17852437 0.19042046 0.2897643

gc2.weight f4 [16, 7]
000000 7b 67 39 bf e3 68 b0 3e ef 73 d5 3e 2f 16 ab 3e
       -0.72423524 0.34455022 0.41690013 0.33415362
000010 c3 8e 9d 3e 4c 0e d6 be b5 d2 fe be 5f 06 97 3e
       0.3077298 -0.41807783 -0.49770132 0.29497048
000020 e6 d8 d6 be e7 e8 91 3e fb 12 34 bf ec b0 e0 3e
       -0.41962355 0.28498003 -0.7034146 0.4388498
000030 f9 53 0a bf 89 75 2f 3f ad 4a 2b bf 1b ea 20 bf
       -0.5403438 0.6853872 -0.6691082 -0.62857217
000040 91 a8 14 3f 67 15 07 3f e7 29 19 bf c6 8d 78 3d
       0.5806971 0.5276703 -0.5982956 0.06068208
000050 f8 f1 80 bd 1c 5f da 3e 90 5f f8 3c 87 c4 fc be
       -0.06296152 0.42650688 0.030319005 -0.49368688
000060 08 07 1b bf df 71 de be 77 9e 7e 3e c3 2e 96 bd
       -0.60557604 -0.43446252 0.24865137 -0.07333138
000070 a2 8e 9e 3e 0a 7d 03 3f 4a ae 05 3f 86 ac 1c bf
       0.30968195 0.5136267 0.5221907 -0.6120075
000080 ae b8 a1 be 44 53 22 bf ac 36 d9 be 7f 69 13 bf
       -0.31586212 -0.63408303 -0.42424524 -0.5758285
000090 6d 8c ea 3e 3c 1e 70 3d c7 27 18 bf 65 6f 20 3f
       0.4581026 0.058622584 -0.59435695 0.62669975
0000a0 c5 d2 fb be 42 6b 00 bd e8 95 e2 be f5 c4 aa 3e
       -0.49184242 -0.03135229 -0.44254994 0.3335339
0000b0 91 f6 09 bf 49 93 e8 3e 17 88 b8 3e c7 b6 eb 3e
       -0.53891855 0.4542487 0.36041328 0.46037886
0000c0 ec 5d 46 bf 0d 42 91 3e 35 69 69 3e 62 23 12 bf
       -0.77487063 0.28370705 0.2279404 -0.5708524
0000d0 7a d5 fd be 9e 28 2b bf c3 92 e4 3e 8a 48 99 3e
       -0.49576932 -0.6685885 0.4464322 0.29938155
0000e0 f2 fe 68 3e 84 8b ae 3d 0c 7d 09 bf 2b 7c 3f 3e
       0.22753504 0.08522704 -0.5370643 0.1869971
0000f0 ab 0c d1 bc 4c 59 1c bf b0 f3 18 3f 98 19 e4 be
       -0.025518736 -0.61073756 0.5974684 -0.44550776
000100 1e 7b e8 3e cb 5c f9 3e 82 cc 49 bf 3a e9 ed 3b
       0.4540643 0.48703608 -0.7882768 0.007260469
000110 ee 01 af be b5 aa 10 bf 5e 1f 1b bf ce 80 a2 be
       -0.3418116 -0.5651048 -0.6059474 -0.31738895
000120 13 64 17 3f ab 04 b1 bd c8 b4 38 bf ea a1 af be
       0.59137076 -0.086434685 -0.7215085 -0.34303218
000130 91 ea c3 3e c2 82 19 3f ca 57 f6 be ed b9 00 be
       0.38264897 0.59965146 -0.48113853 -0.12570925
000140 3d e1 27 bf b0 f5 d7 3e 47 fa 3b bd 09 4f 05 bf
       -0.6557806 0.42179632 -0.04589298 -0.52073723
000150 07 0f 89 3e c3 49 00 bf f2 84 74 3e 42 84 67 3e
       0.26769277 -0.5011255 0.2387884 0.22609046
000160 59 53 36 bf eb 37 1a bf d1 ba 37 bf 83 ee eb be
       -0.7122093 -0.60241574 -0.71769434 -0.46080408
000170 d5 d8 1f 3f 39 6f 2f be b9 2c 18 3f d2 f2 aa be
       0.62440234 -0.17132272 0.5944324 -0.33388382
000180 8e 71 f5 be 62 ec 0d bf d0 d3 2b bf 53 bd 2b bf
       -0.47938198 -0.55438817 -0.67120075 -0.6708576
000190 ed cd b9 3e 7f 06 7a 3e 3e f1 8f 3e 4e f3 d4 3e
       0.3628992 0.2441654 0.2811374 0.41591877
0001a0 59 63 0d bf 13 35 2a bf 0e 58 dd 3d 7d d3 08 bf
       -0.5522972 -0.66487235 0.10807811 -0.53447706
0001b0 80 4e ee 3e 75 74 c5 bd 3e 03 a1 3e f4 8a 2f 3f
       0.46544266 -0.09641353 0.31447786 0.685714

gc2.bias f4 [7]
000000 75 2a 90 3e 92 5d 8d be ef 56 41 be b6 ac f3 3d
       0.28157392 -0.2761045 -0.18880819 0.11898176
000010 df 30 20 3e 95 9a b9 3d 3c b0 aa bc
       0.15643643 0.09062687 -0.020835988
